checkpoint.pt (torch, 252907 bytes, 10 tensors)

lstm.weight_ih_l0 f4 [320, 13]
000000 5f a0 cf 3d e5 f2 4d 3e 21 c7 0b be 57 96 d4 3c
       0.1013801 0.20112188 -0.1365018 0.025950594
000010 2f fe 6c 3d bf 79 d4 3c f2 cb 47 bd b8 73 5c 3d
       0.057859596 0.02593696 -0.04877848 0.053821295
000020 29 77 f0 bc 58 bf 2d 3e 4d ed 1f 3d d2 87 a0 3c
       -0.029353695 0.16967523 0.039044667 0.019596014
000030 77 c0 2e bd a6 64 49 3d ad 8d e4 bb 76 f7 bd 3c
       -0.042664018 0.04916825 -0.006974897 0.023189288
000040 dd da a8 3d cd fa 5e 3d 9e bd 0d 3d 66 9f dd bb
       0.0824487 0.0544384 0.03460466 -0.0067633865
000050 d3 fa 77 bd de f0 28 be aa 82 54 3e a3 48 18 be
       -0.06054194 -0.16498134 0.2075297 -0.14871459
000060 b7 3e 0f 3d a9 84 d5 bd b3 ed b6 bc c7 c1 dc bd
       0.03497192 -0.104256935 -0.02233014 -0.107791476
000070 b6 55 05 bd 92 56 19 3e 38 99 e2 3c 37 f9 1a 3e
       -0.032552443 0.1497443 0.027660951 0.1513413
000080 70 f8 88 bd 52 03 a9 3d 24 32 fc bd 36 68 22 3e
       -0.06688011 0.082525864 -0.12314251 0.15860066
000090 bb f0 0f be 30 38 f3 3d a3 16 a8 bc 92 74 a7 bd
       -0.14056675 0.11875951 -0.020518607 -0.08176531
0000a0 1a 3e 23 3a 8d 9d 90 bd 8d 42 0d 3d e6 fb d0 bd
       0.00062272104 -0.070613004 0.034487296 -0.10204296
0000b0 66 a0 0d bc 82 eb 1c 3e c4 1e 39 3e 00 f2 55 3d
       -0.008644199 0.15324214 0.18078142 0.052232742
0000c0 b7 d1 1e ba 9a 51 96 3d d8 f2 5b 3d 74 3b 9d 3b
       -0.00060584716 0.07339783 0.05369839 0.004798347
0000d0 ad 44 84 bd 1e 48 42 3d cc 33 54 bd 98 e3 3f 3b
       -0.06458411 0.047432058 -0.05180721 0.0029279944
0000e0 54 d6 cd bd b5 8e a2 bb 81 e0 04 be 57 2e 8a bd
       -0.100506455 -0.0049608597 -0.12976266 -0.0674712
0000f0 fd 54 86 3d 54 bb 67 3d a6 5d 17 bd bd 62 0e 3e
       0.06559179 0.056575134 -0.036954544 0.13904853
000100 dd 4e e1 bd 46 e5 62 bd d6 88 d6 bd 5e 44 0d 3d
       -0.1100137 -0.055394433 -0.10475318 0.03448903
000110 ca 7e db 3c 6c a5 9b bd 24 6a 98 3c 5e 8b bd bd
       0.026793856 -0.07599911 0.0186053 -0.09255098
000120 e8 29 98 bd 2c 70 1c be f4 6c 9a 3d d8 4c 87 3d
       -0.07429868 -0.15277165 0.075403124 0.06606454
000130 bf 50 59 bd 74 43 b7 3d 8a d4 52 be 75 66 aa bd
       -0.05305552 0.089484125 -0.2058889 -0.083203234
000140 41 8b dc bd 08 b0 2b 3d 5e b4 f4 bc da 2c 6f bc
       -0.10768748 0.041915923 -0.029871162 -0.014598096
000150 6c 07 fc 3a b4 b8 ea bd ad 4d a1 3d 1f a4 94 bd
       0.0019228286 -0.114610106 0.078761436 -0.07257866
000160 28 fd ad 3d 27 a6 c9 ba d4 31 b0 3b 42 b3 93 bd
       0.08495551 -0.00153846 0.0053770337 -0.07211925
000170 4a f0 d4 bb df 7c 33 bd 6d 18 93 3c 84 11 bf bd
       -0.0064983713 -0.04382026 0.017955983 -0.09329513
000180 cd dc 02 bd 28 60 75 be bc 69 7c 3d ac 88 04 bd
       -0.031948853 -0.23962462 0.061624274 -0.032356903
000190 95 0c be 3c 4f 19 2c 3d 17 e4 d4 bd 4a 4e c8 3d
       0.023199359 0.042016324 -0.10395067 0.097805575
0001a0 c6 25 8f bc c6 15 35 3d 9d 75 ef 3d f3 40 e2 3d
       -0.017474066 0.044210218 0.11692355 0.11047544
0001b0 f2 c5 5d bd bf d8 2a bd b7 80 24 bd 20 b7 d0 bd
       -0.054143853 -0.04171061 -0.040161815 -0.10191178
0001c0 b5 f6 91 3c 82 cf a8 3d b1 5c 08 bd 20 a4 72 bd
       0.017817834 0.08242704 -0.033291522 -0.059238553
0001d0 10 96 89 3d e4 89 69 3c 92 21 10 be cb a2 a1 3d
       0.06718075 0.014254067 -0.14075306 0.078923784
0001e0 64 61 5e bc 76 59 81 be d7 ef be 3d c4 9e 06 be
       -0.013573024 -0.25263566 0.093230896 -0.13146502
0001f0 0a b5 06 3e 31 80 1f be 66 a4 b1 3b 39 67 69 3d
       0.13154998 -0.15576245 0.005421209 0.056983206
000200 44 50 11 bd be 43 b4 3c b9 9e 12 3e eb be 6e 3d
       -0.035476938 0.022004958 0.1431836 0.058287542
000210 44 3e 25 be fa 76 f1 3d f1 3f ff bd 33 07 ce 3d
       -0.16137034 0.11790271 -0.12463368 0.10059967
000220 99 43 fb bd 45 eb fa 3d 4e 77 c3 bd 39 f4 d1 bd
       -0.122687526 0.12251905 -0.0954424 -0.1025166
000230 0e be 27 bd 77 e7 0f be 5c 5f d3 3c c8 3e 00 3e
       -0.040952735 -0.1405314 0.025802307 0.12523949
000240 6d 36 ca bd b1 dd 72 bd ac 93 60 3b 7b 29 9f 3d
       -0.09873662 -0.059293453 0.0034267707 0.07771584
000250 dc ca a2 bd 9e 43 4d 3d 8d 2b f6 3c 37 e9 f0 bd
       -0.079488486 0.050113313 0.030050064 -0.11763232
000260 7a d4 7b 3d 99 dd 00 bd 6f 97 8d bd 0f 04 8f bc
       0.06148193 -0.031461332 -0.06913649 -0.01745799
000270 9f f2 da bd 14 be 01 bc 98 70 de 3d 09 26 8e 3d
       -0.106908076 -0.007918853 0.10861319 0.069408484
000280 65 93 47 3d 76 7b 6c bc 12 56 33 3e e6 ed 04 3e
       0.04872455 -0.014433732 0.17513302 0.12981376
000290 7c 74 40 3d 49 bc 88 3c de 95 35 3e de 0c 90 bd
       0.04698609 0.016691344 0.17732951 -0.07033704
0002a0 40 56 2a 3e b1 75 14 bd 88 89 11 3d d5 63 7f bb
       0.16634464 -0.03624505 0.03553155 -0.0038969417
0002b0 e0 5e 5c be 81 aa 51 3d 0b 0f 30 3d 26 9b 25 be
       -0.21520567 0.051187996 0.042983096 -0.16172466
0002c0 13 73 93 bd 72 65 1d be 6e 1c b5 3d e8 07 fb bd
       -0.07199683 -0.1537073 0.08843313 -0.12257367
0002d0 44 fc e5 3d 2a e7 1b bd 59 c7 ee 3d 5a ce f3 3b
       0.112297565 -0.038062252 0.11659116 0.0074403705
0002e0 29 f5 94 bd c3 12 84 bd 00 ed 8a 3d 8c c6 b3 3d
       -0.07273323 -0.06448891 0.067834854 0.08778104
0002f0 29 6d ce 3b d6 51 55 ba eb 97 80 3d be fe 38 bd
       0.006299634 -0.00081374997 0.06278976 -0.045164816
000300 94 79 1a 3b 3f 6b 93 3d d3 3f eb bd 62 64 cc 3c
       0.0023571001 0.0719819 -0.11486783 0.02495021
000310 7c 48 6a bd cc bd 39 3c 23 af e4 3a 8c 81 ef 3d
       -0.057198033 0.011336755 0.0017447214 0.11694631
000320 55 a2 45 be 74 38 80 3d e0 15 dd bb 05 fd a2 bd
       -0.19300206 0.062607676 -0.0067469925 -0.07958416
000330 b0 7f de 3d e7 9d 2f be 2f c0 f0 bc c2 a9 5b bd
       0.10864198 -0.17150079 -0.029388515 -0.05362869
000340 b8 0c 3e be af b5 de 3c d5 c9 88 3d ea 9d 18 3e
       -0.1855954 0.027186243 0.066791214 0.1490399
000350 79 d3 73 bd bb 56 29 3e 7c e5 1a be 6b fa d8 bd
       -0.059527848 0.16536991 -0.15126604 -0.105946384
000360 09 c5 05 3d 0b f1 10 be 73 f8 02 bc 31 a4 53 bd
       0.03265861 -0.1415445 -0.007993805 -0.051670257
000370 47 99 4d 3d 58 28 2a 3c 9c d1 db 3c 8d ee cc bd
       0.050195005 0.010385595 0.026833348 -0.100064375
000380 4d ef a8 3d 04 a2 bd bd 4c ba 10 be 0c 0e 9e bd
       0.08248768 -0.09259418 -0.14133567 -0.07717523
000390 65 45 20 bd 0d 2b 9a 3d 03 1c 22 bd 24 3c e4 bc
       -0.03912868 0.075277425 -0.039577495 -0.027860709
0003a0 f5 ac 58 3d be e5 76 bd dc 24 d5 3d 4e 5a bb bd
       0.05289932 -0.060277693 0.10407421 -0.091480836
0003b0 45 d0 fa 3d bd c3 9f 3c 50 c5 4c be ac eb cd bd
       0.122467555 0.019502515 -0.19997144 -0.100547165
0003c0 e1 fa 1a be 62 73 2b bd e5 f6 3b 3d f2 c7 9f 3d
       -0.15134765 -0.041858084 0.045889754 0.078018084
0003d0 a1 8e f5 bd 9d db 5c bd ba fa 12 3d e3 40 18 3c
       -0.11990095 -0.053920377 0.035883643 0.009292814
0003e0 8c 1d 4d 3d 37 b3 b1 3c 64 f6 89 3d e2 03 7b bd
       0.050077006 0.021691902 0.067364484 -0.061283
0003f0 25 74 ae 3b d8 29 0a bd 4f f9 64 bc 9d 15 1d be
       0.005323904 -0.03373131 -0.013975455 -0.15340276

lstm.weight_hh_l0 f4 [320, 80]
000000 2e 7b 99 3a 2f c3 fd bc 3a c8 52 bd df e8 58 bd
       0.0011709684 -0.03097686 -0.051460482 -0.05295646
000010 6f f1 9d bd cb 4e 09 be 27 7f 06 3e 78 b3 2d 3e
       -0.077120654 -0.13408963 0.13134442 0.16962993
000020 26 4f 13 be eb 77 88 bc 70 28 ce 3d d4 11 87 3d
       -0.14385661 -0.016658744 0.100663066 0.06595197
000030 cf 58 16 3d 02 98 a4 3d c3 71 b6 3c f7 06 ff 3c
       0.03670579 0.08036806 0.022271043 0.03113125
000040 01 f0 09 be 0d 17 eb bd ef a2 53 bd 38 1f e3 bd
       -0.1347046 -0.11479006 -0.051669057 -0.11089939
000050 ab e5 02 3d 77 46 44 bc 15 d8 a3 bd 81 e9 07 3e
       0.03195731 -0.011979691 -0.08000199 0.13272668
000060 17 bb 6c bd 0a 33 0b 3e 60 27 cb bd c8 f3 af 3d
       -0.05779561 0.13593689 -0.099196196 0.085914195
000070 89 6e 08 3d 36 7b 87 bc f5 d2 c3 bc c7 ea 93 3d
       0.03330854 -0.016538244 -0.023904303 0.072225146
000080 c8 d7 c4 bd 4f 1e cc bd 3d 50 5a bd 83 12 ae bc
       -0.096114695 -0.099667184 -0.053299177 -0.021249061
000090 14 cd 3c bd aa 0d 0c 3d 80 6e 30 be 9f 99 c6 3d
       -0.046094015 0.03419272 -0.17229652 0.0969727
0000a0 c3 6f 2c be ca 85 95 3d 86 9b f0 bc 73 3b b7 3d
       -0.16839509 0.07300909 -0.029371034 0.08946886
0000b0 d3 a7 21 be 3e 48 49 bd eb 70 0a bd a1 e9 54 be
       -0.15786676 -0.04914116 -0.033799093 -0.20792247
0000c0 4a 0b 3d bd 0a e0 8c bd 56 72 0d 3e cb 33 24 3d
       -0.046153344 -0.068786696 0.13813147 0.040088456
0000d0 6d 8a 96 3d df 57 e6 3c de 75 0e be a3 43 e4 bd
       0.07350621 0.028118072 -0.1391215 -0.11145713
0000e0 73 71 cb 3c 74 ce 4a 3d 80 1e a4 bd 5b 9a 94 3d
       0.02483437 0.049513295 -0.0801363 0.072560035
0000f0 e3 f1 51 bd 85 00 af 3d 3d db 50 bc 6d 0a 3a 3d
       -0.05125607 0.08545021 -0.012747583 0.0454201
000100 9b 66 0c 3e f9 b0 b0 3d e3 a0 00 3e 63 45 82 bd
       0.13711016 0.08627505 0.12561373 -0.06360891
000110 cd d6 bb bc 84 44 02 be 4c 53 bf 3d 67 96 23 be
       -0.022929573 -0.12721449 0.093420595 -0.15975343
000120 71 61 c8 bd e4 ae ec bc ab 6a 2f 3c 71 b3 9e bd
       -0.097842105 -0.028891988 0.010706584 -0.077490695
000130 6b d4 e7 3d db 4f ff bc 08 b4 3e 3d 26 1a 08 3d
       0.113198124 -0.031166008 0.04655841 0.033228062
000140 0e 73 21 3d 26 7f 06 be 80 26 85 bd 71 7d ff bd
       0.039416365 -0.13134441 -0.06501484 -0.12475098
000150 9c cd 5f bd 17 93 19 3d 87 23 cd bd 79 9e ea 3d
       -0.054639444 0.03749379 -0.10016542 0.114560075
000160 a0 2a 75 3d 58 6f f6 bd fe 33 5f bd 49 d6 08 bc
       0.059855103 -0.12032956 -0.054492943 -0.008351871
000170 d4 ef cf 3c 85 ad 59 bd 31 e0 0f be 01 8b 95 bd
       0.025382914 -0.053143997 -0.14050366 -0.073019035
000180 8a 46 7b bd ce 72 93 bd 56 bf 82 bc 39 5c 8c bc
       -0.06134657 -0.07199632 -0.015960377 -0.017133819
000190 db 3a 42 bd 99 46 b1 3c cc bc 37 bd ac 3c f1 3d
       -0.04741941 0.021640109 -0.044857785 0.1177915
0001a0 b1 c0 c5 3d 3b bf 6a bc 04 36 7e 3d f4 3b a8 bc
       0.096558936 -0.014327819 0.062063232 -0.0205364
0001b0 69 ed 60 bc a0 e2 86 bd bd d4 12 3d 21 8a 44 bd
       -0.013728478 -0.06586194 0.035847414 -0.047983292
0001c0 10 2a 09 3e 1a 59 a8 3d f5 89 2a 3d a8 2b 24 3e
       0.13394952 0.0822012 0.041635472 0.16032279
0001d0 c3 e4 b9 bd 96 94 d0 bd d1 9f 3d 3d 40 5d 96 3d
       -0.09076836 -0.101845905 0.04629499 0.07342005
0001e0 46 20 01 bb 19 4b 27 bd a0 f6 21 bd a4 f6 bc 3d
       -0.0019703074 -0.040843103 -0.03954184 0.092267305
0001f0 9e d3 30 bd 28 68 c4 bd d4 bb de 3d b4 1e c1 3d
       -0.043170564 -0.09590179 0.10875669 0.09429684
000200 6d 29 fd bb 79 d3 7a 3d 1f 97 48 3d 98 7f d8 3d
       -0.0077258856 0.061236832 0.048972245 0.105712116
000210 c4 d3 37 3d bf c8 f8 3d 8f ba 92 3c 4e c1 a9 bd
       0.04487969 0.12147664 0.017911224 -0.08288823
000220 04 c1 bc 3c e1 48 31 3c 4f 31 fd 3d 98 c2 0e 3d
       0.023041256 0.010820598 0.123629205 0.034853548
000230 da 0f 51 bd 4d 16 96 bd 19 e6 41 3c ad 67 52 bd
       -0.051040508 -0.07328472 0.011834645 -0.051368404
000240 96 f1 b7 bd 30 63 ef 3c db be 4f 3d 8a 60 ed bc
       -0.08981626 0.029222101 0.050719123 -0.028976697
000250 82 47 a8 bd 6d d5 0f 3e b6 7e d4 bd c6 4b c5 bd
       -0.08216764 0.14046259 -0.10375731 -0.09633593
000260 e5 24 e3 bc 9a 40 0c be c7 79 95 3c a1 57 e5 bd
       -0.027727554 -0.13696519 0.018246545 -0.111983545
000270 ce ec 01 3d 5c 7f e0 3d 14 3f 68 3d 38 03 eb 3d
       0.031719975 0.10961792 0.05670078 0.11475223
000280 89 34 00 bc 7d 64 32 3d e6 15 d6 bd 7b 4b d5 bd
       -0.007825025 0.043552864 -0.104533955 -0.104147874
000290 cd 22 25 bd f2 45 7e 3d 45 9d a5 bd c4 c8 82 3d
       -0.04031639 0.062078424 -0.080866374 0.06385949
0002a0 bc c5 f4 bd e3 a4 a4 3c ea 21 c2 bd f4 33 a6 bd
       -0.11951777 0.020098155 -0.09479125 -0.08115378
0002b0 cd aa a1 3d a7 06 0b bd d7 30 bf 3d d4 95 0c 3d
       0.07893906 -0.03394189 0.09335487 0.034322575
0002c0 d8 d3 8f bc 13 08 0d 3e 8f d6 ea 3d bc f6 33 3e
       -0.01755707 0.13772611 0.11466705 0.1757459
0002d0 e9 f3 b4 3d 38 76 ce 3d e5 86 29 bd c8 95 3f bc
       0.08835585 0.10081142 -0.04138841 -0.0116934255
0002e0 84 49 7c bd e8 10 0e bd 50 a5 22 3e ec 45 82 3d
       -0.061593547 -0.03468409 0.15883374 0.06360993
0002f0 2f b3 7b bd aa 90 b4 3d 69 17 33 3d 8f 2e 71 bd
       -0.06145018 0.08816655 0.043723498 -0.058882292
000300 c3 a2 a2 bd ae b0 31 bd 11 dd b8 3c 34 59 87 3c
       -0.079412006 -0.043381386 0.02256635 0.016522028
000310 d5 bc 56 bc 1b fb 8d bd c7 49 8d 3c ab c0 03 bc
       -0.0131065445 -0.0693266 0.017247094 -0.008041541
000320 d7 eb 8e bd 39 1c 1f bc e2 43 4d bd 19 b3 53 3d
       -0.06978577 -0.009711319 -0.050113566 0.051684473
000330 a2 d4 ad bd 6b be c6 3d eb 4a 07 3d 15 82 8c bd
       -0.08487822 0.09704288 0.03303043 -0.06860749
000340 64 69 dc 3d 4c 38 36 3c e1 37 50 3d 67 64 21 3e
       0.10762289 0.011121821 0.05083454 0.15760957
000350 3c 73 ee bc 7a 25 af bc 43 bb eb 3d 01 eb a4 3d
       -0.029107682 -0.021380175 0.11510327 0.08052636
000360 3b a6 23 bd 8e 0b 77 bc 92 c4 80 bd 1a c4 c2 3b
       -0.03995345 -0.015078438 -0.06287493 0.0059437873
000370 7a 03 bb bc e5 46 c7 3c 0a 37 ed bd 9b 0a 6f bc
       -0.022828806 0.024325797 -0.115827635 -0.014589931
000380 2f e8 df bd 48 8f 10 bd 0c 59 ba 3c 58 5b e0 bd
       -0.109329574 -0.035292894 0.022747539 -0.109549224
000390 15 14 06 3e 3b 84 71 3c 4a 14 f9 bc 76 49 33 3d
       0.13093598 0.014740999 -0.030405182 0.04377123
0003a0 da d3 e5 3d b0 6d 4b bd 83 5c fc bc d0 ff e7 bc
       0.11222048 -0.049665153 -0.030805832 -0.028320223
0003b0 34 cf ca bd c0 ab 0e bd 53 4b 8e 3d 3d c4 d1 bc
       -0.09902802 -0.034831762 0.06947961 -0.025606269
0003c0 19 94 ba bd 99 4c 67 3d 79 30 29 be 1d 9b bc 3d
       -0.09110279 0.056469534 -0.16522397 0.09209273
0003d0 42 ce f3 3a 2d 29 1a 3d ef 5e 4e bd 56 db ae bd
       0.0018600898 0.037636925 -0.050383504 -0.08537929
0003e0 13 3e ce bd f7 17 ae bd 3e 1c 9b 3d 33 f0 91 3c
       -0.100704335 -0.08500665 0.07573746 0.017814731
0003f0 eb c1 3d bd 15 4b 26 bd b0 c7 5b 3c bb 5a 3f 3d
       -0.046327513 -0.040598948 0.013414308 0.046717387

lstm.bias_ih_l0 f4 [320]
000000 91 bd 7f bd 26 1d 9c 3d cc 2e da bc b1 2f 13 3e
       -0.062436644 0.07622747 -0.026633643 0.14373662
000010 2b bd 0e 3e f2 09 a3 3d 85 2b 93 bd ae 09 9e 3d
       0.1393935 0.07960881 -0.07186035 0.0771669
000020 2c b1 96 3d b9 f8 c0 3d 78 8d 4e bd 16 68 1e 3e
       0.073580116 0.0942244 -0.050427884 0.15469393
000030 94 fe f9 3d b1 a0 ec 3d fb e9 7b 3d 96 b2 30 3e
       0.1220676 0.11554087 0.061502438 0.17255625
000040 07 48 a2 3d 00 1d 14 3e 05 a8 0a 3d 52 7a ef 3c
       0.079238944 0.14464188 0.033851642 0.029233132
000050 f4 c3 e4 3d a2 38 eb 3d ed f1 dc 3d df 26 5a 3e
       0.111701876 0.11485411 0.10788331 0.2130389
000060 65 68 ae 3d cc f3 c3 bc aa 0e 5a bd 1d 02 65 3d
       0.085160054 -0.023919962 -0.05323664 0.05591022
000070 08 cf 34 bd 68 35 a9 3d e0 4c 56 3d c2 20 b7 3d
       -0.044142753 0.082621396 0.052319407 0.08941795
000080 8f 93 8a 3d 6f 1f 8f 3c 10 12 55 3e f4 73 ac 3c
       0.06766426 0.017471043 0.20807672 0.021051385
000090 6d 15 09 bd d2 32 d6 3d f2 3d d4 bd 97 37 c9 3d
       -0.0334677 0.10458912 -0.10363378 0.09825056
0000a0 6b e2 98 3d b6 fc 84 3e da 4e 3a 3d 26 e1 37 3e
       0.07465061 0.25974053 0.045485355 0.17956981
0000b0 7c c4 43 bd 4f aa 93 3d 08 79 e4 3c 1c 18 c9 3d
       -0.047794804 0.07210218 0.027889743 0.098190516
0000c0 86 c2 41 3c 78 81 ef bc be e1 61 3c 72 56 e2 3d
       0.011826163 -0.02923654 0.013786731 0.110516444
0000d0 8c b7 b9 bd b6 e2 8b bb a6 83 e6 3c 07 2b 2e 3c
       -0.09068212 -0.0042689694 0.028138947 0.010630376
0000e0 8e 22 fa 3c 5b 4f a9 3d ee 50 fe 3c d8 c0 46 3e
       0.030534055 0.08267089 0.03104445 0.19409502
0000f0 bb 4c a5 3d 3d 77 89 bc 9a a4 ff bc 2b ea 29 3d
       0.08071276 -0.01678049 -0.031206418 0.041483086
000100 86 d1 68 3c 0d 1e 62 3d 33 9e c8 bc 54 1a 83 3d
       0.0142101105 0.05520444 -0.024489498 0.06401506
000110 e8 0c b4 bb 6e 1f 52 3d 93 a1 8f 3d f1 98 3a 3d
       -0.0054947026 0.051299505 0.0701324 0.045556013
000120 6d b9 34 bd d2 5f d1 3d 16 7d 74 bd ae 90 8f 3d
       -0.04412215 0.102233544 -0.059689604 0.07010017
000130 d0 48 b9 3c 6d e6 14 3e 32 a0 1f bd 29 b2 fa bc
       0.022617728 0.14541025 -0.038971134 -0.030602532
000140 c5 1d 26 3d 2f 5a 17 3e 87 27 83 3d aa 4b fe 3d
       0.040555734 0.14780496 0.064040236 0.124167755
000150 15 d1 56 3e 19 1c 39 3e 10 e1 1c 3d d9 aa 57 3e
       0.20978196 0.18077125 0.038300574 0.21061267
000160 82 cc 51 3e 92 2e 60 bd 9a ef c7 3d 9c 63 be 3d
       0.2048817 -0.054731913 0.09762497 0.09296343
000170 44 4a fc 3d d2 4e 15 3e 31 45 56 3e 83 18 36 3e
       0.123188525 0.14580849 0.20924832 0.17782788
000180 8c fd af 3d 4c 23 2b 3e 13 06 bb 3d 06 f2 19 3c
       0.08593282 0.16712683 0.09132018 0.009396082
000190 0e 9e 64 3d 6d d6 2d 3e 9d 44 df bc ea 38 dc 3d
       0.055814795 0.16976328 -0.027254397 0.10753043
0001a0 73 9e 25 3e 64 30 39 3e e6 2e c4 3c 60 f7 3f 3e
       0.16173725 0.18084866 0.023948144 0.1874671
0001b0 1e 8c a9 bc ec 5d 01 3e 2f 9e 9d 3c 46 f8 1c 3d
       -0.020696696 0.12633485 0.019240467 0.03832271
0001c0 af cd fd 3d 6b 39 b0 bc 2e de 90 3d 63 5f 29 3e
       0.12392747 -0.021511754 0.070736274 0.16540293
0001d0 e3 fd 13 3e e1 83 4a 3e 85 da d2 3d 52 71 dc 3d
       0.14452319 0.1977687 0.102955855 0.10763802
0001e0 c2 6a 04 3c 7d 3f 06 3e 0b 95 6e 3d d8 51 6a 3e
       0.008082094 0.13110156 0.058247607 0.22882783
0001f0 29 a2 b7 3d 3c dd 85 bd e5 92 13 3d a0 5f 61 3d
       0.089664765 -0.06536338 0.03602876 0.055022836
000200 3f 37 46 3e 92 14 35 3e d0 25 83 3d 6b fd bf 3c
       0.19357012 0.17683628 0.064036965 0.023436269
000210 a3 d6 97 3d 6b 28 b7 3d 62 0c 05 3e b4 8f 31 3d
       0.074139856 0.08943256 0.12993005 0.043349937
000220 53 6a cb 3d 73 42 49 3d dc d1 18 3d cc 4b 58 3e
       0.09932389 0.049135637 0.037309512 0.21122664
000230 e7 3c 13 3e 91 a9 fc 3d 0b e5 7d bd 4e 46 30 3e
       0.14378701 0.1233703 -0.06198601 0.17214319
000240 58 a1 13 3e bc 58 01 3e 87 ea 1e 3e 83 26 b8 3d
       0.14417017 0.12631506 0.15519153 0.089917205
000250 1a c1 6d 3e a6 11 61 3d 56 a5 d2 bd 4d d1 3b 3e
       0.23218194 0.05494847 -0.102854416 0.1834156
000260 bf 9d 38 3d d8 86 02 3e a8 99 4a 3d bc 5c 5a 3d
       0.045072313 0.12746751 0.049462944 0.053311095
000270 02 5a ad 3d 62 8b 5a 3e 05 d7 99 3d f0 35 61 3c
       0.08464433 0.21342233 0.07511715 0.01374577
000280 07 23 78 3c 90 09 bc bd 43 59 e2 bd 80 39 1b bd
       0.01514507 -0.091815114 -0.110521816 -0.037896633
000290 be a3 1f bd 0e 4b df bd 11 68 31 bd 06 75 fe bb
       -0.038974516 -0.109029874 -0.043312136 -0.007765415
0002a0 7b cf bd bd b6 87 8b bd 92 04 79 bd f2 c7 78 bd
       -0.092680894 -0.06812994 -0.060795374 -0.060737558
0002b0 a2 0c 56 3d 5f 68 96 3c 76 3b 88 bc d8 00 64 3d
       0.05225814 0.018360315 -0.016629916 0.055664867
0002c0 53 0b aa 3d 2f 8c c4 3d dd 40 88 3c 61 6c cc bc
       0.08302941 0.095970504 0.016632492 -0.024954023
0002d0 d0 4b 21 3d 4b db 35 bd 3f 14 87 3c 6a 87 aa 3d
       0.03937894 -0.044398587 0.016489146 0.083266094
0002e0 14 df 13 be 59 da a7 bd 12 ef d6 3b ae 30 34 bd
       -0.14440566 -0.081959434 0.006559261 -0.043991737
0002f0 7c 61 ce 3d 30 c1 8a bd cb cd 6d bb 91 50 02 be
       0.100771874 -0.06775129 -0.0036285992 -0.12726046
000300 ff c9 37 3d 51 9b c1 bb 1d 84 91 bd 93 6c 39 bc
       0.044870373 -0.0059084077 -0.07105277 -0.01131739
000310 22 d9 c1 bd b3 18 8a bd 06 b3 a5 bc 9e c1 d7 3d
       -0.09465243 -0.06742992 -0.020226967 0.105349764
000320 e2 52 2a 3d 5a ce 9c bd b7 3b 84 bc 8d 85 e2 3d
       0.04158295 -0.07656546 -0.016141756 0.11060629
000330 b7 32 4b bd a6 76 b9 3d ac f0 48 ba 3f 4f 64 3d
       -0.049608912 0.090558335 -0.00076652574 0.055739637
000340 5a ab 37 3d 07 f0 f9 bc 76 ab 4e bc 9a e3 a3 bd
       0.044841148 -0.030509962 -0.012614122 -0.08002396
000350 68 40 dc bc 2d 5d 21 bd 2d f1 e0 bc 6b 67 92 bd
       -0.02688618 -0.0393955 -0.027458752 -0.07148632
000360 e7 3f 05 3e 67 2f 4a bd e4 a7 dd bc 23 35 85 bd
       0.13012658 -0.049361613 -0.027057596 -0.06504276
000370 4b d1 5f bd 00 e2 e6 3d b4 32 41 3d 0d 9c 50 bd
       -0.054642957 0.11273575 0.047167495 -0.05093007
000380 7b 06 4d bc df 0f b3 3c ec ac 81 bc 10 63 9a bd
       -0.012513752 0.021858154 -0.015829526 -0.07538426
000390 bf 96 be bc 62 68 e0 3c 9a a6 d8 3d c1 c8 96 bc
       -0.02326524 0.027393524 0.10578652 -0.018406274
0003a0 37 bd ad bd 63 57 82 3b e1 78 26 3d 7a cd de 3d
       -0.084833555 0.0039777025 0.040642623 0.10879035
0003b0 f7 e9 1c 3c 41 a6 93 bc e0 1f a5 bd ed 48 c7 3d
       0.009577266 -0.018023612 -0.0806272 0.09730706
0003c0 03 c7 dc 3d 08 42 d1 3d 43 81 8c bb f3 c9 f3 3d
       0.10780146 0.102176726 -0.00428787 0.11903753
0003d0 77 fd 30 3e b1 ca b7 3d 51 4b bf 3c d9 7f 45 3e
       0.17284189 0.08974207 0.023351343 0.19287051
0003e0 14 8c 25 3c 7e 3a 47 bd 90 38 92 3c f3 4a ff 3d
       0.010104198 -0.048639767 0.017849237 0.12465467
0003f0 79 ca fc 3d d8 9d e6 3d 99 4e 06 3e 32 66 9d 3c
       0.12343306 0.11260575 0.1311592 0.01921377

lstm.bias_hh_l0 f4 [320]
000000 01 ae 92 3d ee fe 26 3d cb da 23 bd fe 9c c7 3d
       0.07162095 0.040770464 -0.04000358 0.09746741
000010 7c ef 46 bc b1 53 ac 3d 20 63 03 3d 7e 6f 37 3e
       -0.012142058 0.084144 0.032076955 0.17913625
000020 d7 73 17 3e 84 6e 86 3c b1 93 c1 3d 3a 80 e9 3c
       0.14790283 0.01641012 0.09451998 0.028503526
000030 0a 9d d0 3d a8 27 a0 3d af 04 3f 3e ea 48 b7 3d
       0.10186203 0.07820064 0.1865413 0.08949454
000040 06 c6 1a 3e 7e 68 58 3d d0 82 b4 3d 55 8f 39 3d
       0.15114602 0.052834027 0.08814013 0.045302708
000050 71 c6 50 bc 6a 77 35 3d 0b 76 a6 3c 38 3e a1 3d
       -0.012742625 0.044303335 0.02031996 0.078731954
000060 24 12 92 3c 6a ef 4b 3d da 0a aa 3d 15 fa 57 3d
       0.017830916 0.04978887 0.08302851 0.05272873
000070 b8 7d e9 3d a6 65 6f bb 27 4e 1c bd 86 7f 85 3d
       0.11400932 -0.0036529093 -0.03816047 0.06518464
000080 af 3b d6 3d e4 e8 29 3d 44 44 e4 3c 92 df 44 3b
       0.104606025 0.041481867 0.027864583 0.0030040485
000090 57 9f a3 3d 4d 50 d6 3d 87 7d bd 3d a0 b3 dd 3d
       0.07989376 0.10464535 0.09252458 0.108252764
0000a0 c3 df 24 3e 6f 40 54 3e f6 9b e9 bc 27 36 1e 3d
       0.16100983 0.20727704 -0.02851675 0.038625862
0000b0 72 e3 2a 3d f4 4e 56 bd 04 16 02 bd a3 72 9a 3d
       0.041720815 -0.05232139 -0.031759277 0.075413965
0000c0 a0 ac 9b 3c f1 49 64 3d b2 7b a2 3d 14 10 f0 bb
       0.019003212 0.05573458 0.07933749 -0.0073261354
0000d0 5f 43 91 bd 50 76 f4 3d 8b 99 2f 3d ec cc af 3d
       -0.07092928 0.11936629 0.04287104 0.085840076
0000e0 93 a7 90 bc af 32 87 3d 79 3f 01 3c 89 c1 9f 3d
       -0.01765803 0.06601464 0.007888668 0.07800586
0000f0 b3 d1 17 3e b5 7b ee 3d 23 cd 04 be ed 5c 07 3c
       0.14826088 0.11644689 -0.12968878 0.008261901
000100 f5 1d 09 3e 9f 0b 5b 3e fc 62 b1 bb 9d 91 2b 3c
       0.13390334 0.21391152 -0.005413411 0.010471729
000110 63 20 3b 3c 06 3f 4a 3d 2d 87 b7 3c fd 97 22 3e
       0.011421296 0.04937651 0.022403324 0.15878291
000120 85 cd 8d 3d 92 b2 36 3e 41 fb b8 3d 03 92 ca 3d
       0.06923965 0.17841557 0.09032298 0.09891131
000130 06 2d f2 bc 20 f4 94 3c 68 59 a3 3d 4c 9c 91 3d
       -0.029562484 0.018182814 0.07976037 0.071098894
000140 f8 89 bd 3c d4 d8 3f 3c 6d 16 db bc 62 3c 32 3e
       0.023137078 0.011709411 -0.026744092 0.17405847
000150 9b 64 f1 3d 4e df 12 3e 0b 35 60 3d 43 d5 74 3e
       0.11786767 0.14342996 0.054738086 0.23909478
000160 a0 5e 49 3e 1a 76 03 3e bb d5 07 3e 90 70 2e 3e
       0.19665003 0.12838021 0.13265125 0.17035127
000170 e1 9d 39 3e 84 c9 72 3e 1e 10 75 3e 7d f2 c1 3d
       0.18126632 0.23709685 0.2393193 0.09470079
000180 80 4a fa 3c da 27 1f 3e 29 90 f8 3c 7a 56 2d 3c
       0.030553102 0.15542546 0.030342178 0.0105797
000190 79 62 43 3e b2 91 de 3d 56 7b 08 3e 73 98 59 3e
       0.19080533 0.10867633 0.13328299 0.21249561
0001a0 75 2c 59 3d cd e6 3b bc c5 1e 0b 3e f5 a5 98 bc
       0.053020913 -0.011468601 0.13585956 -0.018633822
0001b0 61 ec b0 3c f9 f3 c5 3d 1f ae 00 3d eb 6b 1d 3a
       0.02159709 0.09665675 0.031416055 0.0006005156
0001c0 82 29 74 bd 35 02 c6 bb 81 b3 05 3e ff 8c 89 3d
       -0.059609897 -0.0060427436 0.13056757 0.06716346
0001d0 cb 25 80 3d d3 5c 7e 3d 8b 86 30 3b a1 5e 1b 3c
       0.062572084 0.062100243 0.0026935663 0.0094830105
0001e0 8c 19 45 3e 0d 73 66 3e 29 0a db 3d 44 4b b6 3d
       0.19248027 0.22504826 0.10695297 0.089010745
0001f0 40 fe fc ba a4 fa 0a 3d 82 47 90 3d 24 f9 c7 3d
       -0.0019301847 0.033930436 0.07044889 0.09764317
000200 d9 c9 4c 3e 7e 0d 0b 3e bd 4a c6 3d 37 8a 2c 3e
       0.19998874 0.13579366 0.09682224 0.168496
000210 95 2e d7 3d 30 7a 4f 3d 7d e6 87 3e 04 df 52 3d
       0.10506932 0.050653636 0.26543036 0.051482216
000220 9a 8c de 3c 68 43 c3 3b 4e 8a ce 3d 1e 46 49 3d
       0.027166653 0.005958963 0.10084973 0.049139135
000230 4c 9f 39 3e d5 b7 8d 3d 0f 1c 03 3e 3c c2 3c 3e
       0.18127173 0.06919829 0.12803672 0.1843347
000240 11 2d 2c bc 8d 1c 17 3e 6b 1a f5 3d 66 48 9e 3d
       -0.010508792 0.14756985 0.119679295 0.07728653
000250 d0 b6 4e 3e 16 c7 01 3e de c8 ae 3c e2 d2 ce 3d
       0.20186925 0.12673602 0.021336015 0.100988165
000260 a8 d6 fb b9 7b 0d 32 3e b1 cd 12 3e 44 c7 0d 3e
       -0.00048034382 0.17387955 0.14336278 0.13845545
000270 e2 3f 45 3d 06 48 24 3e ef ed 0d 3e 2b 5a 05 3e
       0.048156627 0.160431 0.13860296 0.13022678
000280 a4 9c c0 3d f0 0e 8f 38 52 c2 b2 bd 2f 67 a3 bd
       0.09404877 6.821554e-05 -0.0872847 -0.07978665
000290 ec 0f dd 3d ae e7 91 bd bf c6 9d 3d 9d 36 dd 3d
       0.107940525 -0.071242675 0.077039234 0.10801432
0002a0 59 21 40 bd 71 de b0 bd 7d c3 bf bd ee 6a 84 bd
       -0.046906803 -0.08636177 -0.09363458 -0.06465708
0002b0 66 e9 66 bd aa 0e b9 3d 62 3f 0e bb 3a 78 94 3b
       -0.05637493 0.09036 -0.002170526 0.0045309337
0002c0 e4 51 a4 bd 3e a5 83 3d 7c 37 c1 3d e4 86 47 3d
       -0.08023432 0.06428002 0.09434411 0.048712626
0002d0 c4 27 ac 3a e2 92 66 3d 08 4d c2 3c 6c 37 8d bd
       0.001313441 0.056292422 0.023718372 -0.068953365
0002e0 68 38 0d be 30 5e 41 bd ba 1e 62 bd 11 35 90 bd
       -0.13791049 -0.047208965 -0.055205084 -0.070413716
0002f0 6f 9a 9b 3d ae 58 9b bd 8a 06 f8 bc 1e b4 42 bd
       0.07597815 -0.07585274 -0.030276556 -0.047535054
000300 34 ea ea 3d 1d da 41 bd 2b 5f e1 3d bf 41 c8 bd
       0.11470452 -0.04732715 0.1100448 -0.09778165
000310 d5 e6 c6 bc 93 9f 0c be 0c 59 ee bd dc c6 34 3d
       -0.024279991 -0.13732748 -0.11638078 0.04413496
000320 fb 08 59 3b aa 31 00 3e 7f 70 c2 bc 03 c2 21 bc
       0.0033116925 0.12518945 -0.023735283 -0.009872916
000330 b9 f3 dc bd 60 d3 aa bc 4f 36 91 bd 8f 19 fa 3c
       -0.10788674 -0.020852745 -0.07090437 0.030529765
000340 5a f5 e8 3c e2 11 3d 3d b2 1b 3f bd a8 a9 37 bd
       0.028437305 0.046159633 -0.04665727 -0.04483953
000350 be bf 14 3d 29 9e 0d bd 3d 21 83 3d 3e 43 aa bd
       0.036315672 -0.03457466 0.06402824 -0.08313607
000360 54 65 10 bd 1a 6f 01 3d 34 f1 d8 bc 2f 60 42 3d
       -0.035252884 0.031600095 -0.026482202 0.04745501
000370 ec 96 b7 3b 0d 29 e5 3d 1c 03 8a 3d 59 a9 0b be
       0.005602708 0.111894704 0.06738874 -0.1363882
000380 79 46 9e 3d 28 92 7e bd a1 4d 40 3d f3 f3 b6 bd
       0.07728285 -0.062151104 0.046949033 -0.08933248
000390 89 74 3b bd 12 17 03 3d 6b b7 21 bc b2 f2 35 3d
       -0.045765433 0.032004423 -0.00987039 0.044420905
0003a0 f7 c0 ad bd 44 be 1f 3b 74 8b 93 3a 10 e3 57 38
       -0.08484071 0.0024374882 0.001125677 5.1471463e-05
0003b0 41 53 78 3d 16 d2 ce 3d a0 5d 95 3d 79 0e e9 3d
       0.060626272 0.100986645 0.07293248 0.113797136
0003c0 fc 88 4b 3d e9 dd c5 bc 6b 75 99 bd 2c 38 31 3d
       0.049691185 -0.024153667 -0.07493099 0.04326646
0003d0 93 da 50 3e b3 63 2b bc 3c b1 0c bd ef 9b 4c 3d
       0.2039588 -0.010460782 -0.03434871 0.049953397
0003e0 b2 24 68 3e 56 ab 7b 3c 1f a0 48 bd 17 ef 51 3e
       0.22670248 0.015360674 -0.04898083 0.20501362
0003f0 14 66 98 3d 2b 37 7f 3d 45 f8 bf 3c ac 89 6b 3d
       0.07441345 0.06230847 0.023433814 0.05750434

lstm.weight_ih_l0_reverse f4 [320, 13]
000000 90 f9 d3 bc 14 5c cb bb 06 c9 06 3d 64 f0 16 bc
       -0.025875837 -0.006206045 0.032906555 -0.009212587
000010 2b 47 a9 bd 9e 05 08 3d 4b b3 02 be 95 0f 30 be
       -0.08265527 0.033208482 -0.12763707 -0.17193444
000020 06 fc b4 3c d9 b5 f9 3d 5f d2 75 3d 75 74 0f 3e
       0.02209283 0.12192888 0.06001508 0.14009269
000030 1d 8d 0b 3e 7e d1 ae 3d 8e 02 3e 3e 95 ea 5c 3d
       0.13628049 0.08536051 0.18555662 0.053934652
000040 40 61 ec bd 23 f1 0a 3e 2a 41 bd bd 3d ab bc bb
       -0.115419865 0.13568549 -0.09240945 -0.005757718
000050 32 9a dd bd 48 d1 36 be 04 bd 47 3c bb 2b 87 3d
       -0.10820426 -0.17853272 0.012191061 0.06600138
000060 02 50 db 3d 0b a4 35 bc d5 d6 07 be e4 b7 b3 3e
       0.1070862 -0.011086474 -0.13265546 0.35101235
000070 73 c2 90 bd 3a b8 16 3e 6a 36 48 3e 71 ed 57 3c
       -0.07068338 0.14718714 0.19552007 0.013179169
000080 cb a0 30 be 19 a3 b2 bd e7 c8 01 bd a5 23 aa bd
       -0.17248838 -0.08722515 -0.031685736 -0.0830758
000090 7e 16 b8 3d dd dd 34 be 9e c1 b6 3c af 4a a6 3d
       0.08988665 -0.17662759 0.02230912 0.081197135
0000a0 bf ca 57 bd 86 7f ef 3c 62 fc 79 3d b3 2e 5e 3d
       -0.052683588 0.029235613 0.061031707 0.054243755
0000b0 37 29 cb 3c de 9a 74 be a3 82 3d 3e ea 9d 93 bd
       0.024799926 -0.23887202 0.18506865 -0.07207854
0000c0 7d f8 13 be de 29 f7 3d 21 04 2b be 55 c0 98 3d
       -0.1445026 0.120685324 -0.16700794 0.074585594
0000d0 25 9b a4 3d 01 07 a5 3e 42 6f 5a 3e 4f 97 ac bd
       0.08037404 0.32231906 0.21331504 -0.08427297
0000e0 6c 90 91 be fb b2 b2 bc 10 43 07 bd 9a 05 3e be
       -0.28430498 -0.02181386 -0.03302294 -0.18556824
0000f0 55 ec 01 be 18 55 28 be 31 a1 d5 bc 8a b8 14 3e
       -0.1268781 -0.1643871 -0.026077839 0.14523521
000100 f0 d3 1d be c4 86 af bd 35 7c 8f bc a2 76 5e 3e
       -0.15412879 -0.085706264 -0.017515281 0.21724942
000110 aa 1a 1d 3e 67 b9 a2 bd ff 03 e0 3c 85 85 f4 bd
       0.15342203 -0.07945519 0.027345655 -0.11939529
000120 62 9b 70 be a2 d7 de bc 77 15 57 bc 7f a6 c9 bc
       -0.23496774 -0.027202431 -0.013127676 -0.024615524
000130 b5 dd 55 3e b1 6f 3b 3d 4c 74 e9 3d 95 49 0e 3e
       0.20885356 0.045760814 0.11399135 0.13895257
000140 54 28 f0 bc 2b 5c 7c 3d 12 01 90 3c 27 96 c5 bd
       -0.029316105 0.061611336 0.017578635 -0.0964778
000150 60 69 16 be f3 4a 11 be 54 47 0b be d0 40 cf bc
       -0.14688635 -0.14188747 -0.13601428 -0.02529946
000160 9d 2b 26 be 59 88 62 3e e2 d5 05 3d e1 f2 47 bd
       -0.16227575 0.22122325 0.032674678 -0.04881561
000170 f2 fc c3 3d 0d bb df 3d 76 76 3b 3e 8b 23 70 bd
       0.0956973 0.10924349 0.18306908 -0.058627646
000180 3e c2 8b bd c9 8f c5 bd ca 6f 9b be dd 02 e5 bd
       -0.06824158 -0.096465655 -0.30358726 -0.11182187
000190 df a1 82 bd 63 e0 a7 bd 06 98 0c be fa 1b a2 bc
       -0.06378531 -0.08197095 -0.13729867 -0.01978873
0001a0 eb d6 af 3d fe 0d d5 bd 89 51 22 3d c0 11 78 3d
       0.08585914 -0.104030594 0.03962854 0.060563803
0001b0 2e 85 37 3e ea 29 bf bd 11 33 3a bd 1c c7 bf 3c
       0.17921898 -0.09334166 -0.045458857 0.023410372
0001c0 03 5c 4b bd 22 d8 52 3d c7 f9 aa bd 49 9a 72 3d
       -0.049648296 0.05147565 -0.083484225 0.05922917
0001d0 7a 9a 3c bd 3a ea ea bd b6 77 53 3e df b1 83 3e
       -0.046045758 -0.114704564 0.20651135 0.25721642
0001e0 05 70 1a 3e 15 c6 32 3d b5 95 26 bd 37 21 42 bd
       0.15081795 0.043645937 -0.040670116 -0.047394957
0001f0 d3 5e 03 bd 6c 0f fb 3d 32 c7 5c bd 1e 61 61 3c
       -0.032072853 0.12258801 -0.053900905 0.013756065
000200 08 09 31 bd d5 f0 cf 3d 08 3a d4 bd 93 aa 90 bd
       -0.043221503 0.10153357 -0.10362631 -0.070637845
000210 67 ad aa 3d 47 53 fb 3d 82 e3 37 3c 65 1c 90 3d
       0.08333855 0.12271743 0.011223676 0.07036666
000220 c1 95 a2 bd 3b 26 c5 bb 84 aa 75 3d 35 e7 7f bd
       -0.079387195 -0.0060165203 0.05997707 -0.062476356
000230 5e 6b 1b bc 3f e7 21 be 3a 6f 10 3e 31 10 6f be
       -0.009486048 -0.1581087 0.1410493 -0.2334602
000240 b3 51 b5 bd f3 77 84 3d e0 37 b1 3d f3 5f cf bd
       -0.088534735 0.06468191 0.086532354 -0.10125723
000250 9d 0a 25 3a e8 cb 22 3d 52 c2 31 bd 01 0c 64 3c
       0.0006295832 0.03974524 -0.04339821 0.013918878
000260 2b dd f9 bd 13 39 ae b8 57 16 a5 bd 9d d6 19 3e
       -0.122003876 -8.3075975e-05 -0.080609016 0.15023275
000270 6e 20 6c bd d5 18 5a bc 3b ec 73 3e 9d 9b 8c 3d
       -0.057648115 -0.0133115845 0.23820584 0.068656184
000280 a2 02 e5 3d f1 f3 0d bc b5 a6 20 be 31 61 cc bd
       0.11182143 -0.008664117 -0.15688594 -0.09979475
000290 05 5d a9 3d 6f 2f 0b be c5 a5 fe 3c 40 8d dd bd
       0.08269695 -0.13592313 0.031084904 -0.10817957
0002a0 b4 76 8e bd 99 0a 91 bd c6 dd c2 bd 12 f3 71 3c
       -0.069562346 -0.070820995 -0.09514956 0.014767425
0002b0 36 22 a7 3d a4 0b 26 be 82 82 9c 3d 22 1d 69 bd
       0.08160822 -0.16215378 0.0764208 -0.05691255
0002c0 19 a1 70 bd d8 aa 22 bd 49 b6 7b 3c 4c 38 5e 3e
       -0.058747385 -0.03971371 0.015363284 0.21701163
0002d0 a1 c4 32 3c 81 43 3f bd 73 8e b2 3c f4 61 86 3d
       0.010911138 -0.046695236 0.02179644 0.06561652
0002e0 c8 10 e6 3c 78 ce 18 3e f6 96 b1 bc 27 2f 8d bd
       0.028084174 0.14922512 -0.02167843 -0.06893759
0002f0 01 d9 ae 3d 68 06 b2 bd 50 94 ed bd 53 b4 c9 bd
       0.08537484 -0.08692628 -0.11600554 -0.09848847
000300 9c ac 40 3c 0f 6a de bd ea 10 f1 bd 83 a2 8c be
       0.011759903 -0.10860073 -0.11770804 -0.27467737
000310 73 33 7d 3d 94 1d 7a 3e 9b 95 3f 3e bb 11 55 3e
       0.061816644 0.24425346 0.18709414 0.20807545
000320 46 cd e3 3b 35 9e 48 ba 50 f1 3d 3d 49 34 55 3e
       0.0069519607 -0.0007652969 0.04637271 0.20820726
000330 ec c8 89 be 9d 3c 73 3e 1b 05 9d be b4 b7 fd 3d
       -0.26911104 0.23753591 -0.30667958 0.12388554
000340 54 fd 37 bc 82 ab 56 3c 60 c9 01 bd 6b 65 ce bd
       -0.011229832 0.013102414 -0.031686187 -0.10077938
000350 c3 46 c3 3d 30 a1 51 be d8 a2 38 be 09 80 9f bd
       0.09534981 -0.20471644 -0.1803087 -0.07788093
000360 36 a0 08 3d 36 2c 1c 3e 3d 1e f5 bd bc 5c be bd
       0.033355914 0.1525124 -0.11968658 -0.092950314
000370 8e d7 48 be 5e 5d 06 3e 81 15 30 3e ff fc 0f 3e
       -0.19613478 0.13121554 0.17195703 0.14061354
000380 82 b9 1e 3e 80 55 f6 bd c1 52 f1 3d 18 3f 8b 3d
       0.15500453 -0.120280266 0.11783362 0.067991436
000390 ae e5 98 3c 17 82 f6 bd 77 9b 97 3c f4 ca 65 3d
       0.018664207 -0.120365314 0.018506749 0.056101754
0003a0 02 ba 2b be ea 27 39 bd 43 40 63 be 9f c4 9e 3e
       -0.16770175 -0.04520408 -0.22192483 0.31009385
0003b0 a8 88 ce 3d d1 66 99 3d f8 85 ed 3d d8 b7 96 3e
       0.10084659 0.07490314 0.11597818 0.29437137
0003c0 24 60 58 3e 01 56 c1 3d 1c 4e 3d 3d 65 b5 a1 be
       0.21130425 0.09440232 0.04621707 -0.31583706
0003d0 ce 83 e1 bd b6 d3 e9 bd cf 21 2b be 7f 85 5d bd
       -0.11011468 -0.11417334 -0.16712116 -0.05408239
0003e0 62 0f 5f 3e 19 85 be bd ac 20 3c 3e 3e 09 90 3e
       0.21783212 -0.0930273 0.18371838 0.2813205
0003f0 f3 60 85 3d 2a 73 a3 bd 63 68 e8 bd dc eb 1a 3e
       0.06512632 -0.0798095 -0.11348035 0.15129036

lstm.weight_hh_l0_reverse f4 [320, 80]
000000 df e8 aa 80 14 44 9e 81 6d f8 8f 02 0c dd 80 81
       -1.5695573e-38 -5.813772e-38 2.115455e-37 -4.733696e-38
000010 90 79 92 01 0c c9 40 02 58 e9 88 00 cf 0a 14 86
       5.3806363e-38 1.416363e-37 1.2573335e-38 -2.7843647e-35
000020 e0 31 d6 04 b0 34 f4 80 40 87 9f 80 ee c8 05 82
       5.035696e-36 -2.2426762e-38 -1.4650362e-38 -9.828961e-38
000030 bb 0c 8d 00 eb 31 3d 01 0e d6 bb 01 c7 e7 13 06
       1.2953372e-38 3.4749632e-38 6.9000105e-38 2.781791e-35
000040 f0 b6 99 00 44 de 30 84 66 04 6f 01 58 2d 35 85
       1.4116457e-38 -2.079076e-36 4.3900523e-38 -8.5189074e-36
000050 10 dc 6e 81 ba 93 53 01 45 75 c0 80 74 3f 35 81
       -4.3871583e-38 3.8860568e-38 -1.7674484e-38 -3.3289975e-38
000060 2c 09 d6 81 e6 6a 87 01 74 ec 3d 01 61 56 34 01
       -7.8624346e-38 4.974456e-38 3.4883464e-38 3.3122752e-38
000070 db 92 95 81 ee 78 a4 02 32 8d 3d 81 06 77 b3 83
       -5.4944683e-38 2.4167044e-37 -3.481512e-38 -1.0548001e-36
000080 ee 15 a9 83 88 c4 04 82 70 27 73 81 0a 32 84 81
       -9.937962e-37 -9.75423e-38 -4.4660346e-38 -4.8560945e-38
000090 84 b2 a1 81 b2 2d 5a 81 98 f3 51 86 a3 f2 09 07
       -5.9398217e-38 -4.007306e-38 -3.9487496e-35 1.0378039e-34
0000a0 5d 17 8b 83 41 c9 2d 81 c4 1a 55 01 50 e5 b0 81
       -8.17505e-37 -3.1919474e-38 3.9141125e-38 -6.4981237e-38
0000b0 77 a7 62 03 58 dd e3 81 24 6c ba 00 9e 79 8d 86
       6.660767e-37 -8.3704243e-38 1.7120196e-38 -5.3217006e-35
0000c0 aa 21 57 81 93 63 7f 00 84 57 c2 81 de 0d 67 01
       -3.9513416e-38 1.1698829e-38 -7.1389924e-38 4.2437948e-38
0000d0 bd 5d 90 81 ae fe ba 00 2d 43 99 87 69 8c 81 03
       -5.3031754e-38 1.7172764e-38 -2.3060364e-34 7.614175e-37
0000e0 70 80 fe 00 d6 2d 37 81 01 54 81 81 c6 38 82 07
       2.3372291e-38 -3.3644677e-38 -4.7507656e-38 1.9593594e-34
0000f0 f2 c2 a9 02 32 0b f4 04 60 14 98 81 cb 96 e0 01
       2.4944211e-37 5.7374406e-36 -5.586522e-38 8.250098e-38
000100 78 47 bb 01 35 15 b3 81 55 59 be 81 cc 44 67 01
       6.8795504e-38 -6.5784646e-38 -6.992316e-38 4.2477359e-38
000110 25 1b 1e 06 7a e8 dc 84 6d e1 87 81 dd 54 88 81
       2.973644e-35 -5.1935247e-36 -4.991464e-38 -5.008028e-38
000120 36 e5 10 87 9c 70 4f 80 e4 6d 78 81 08 5e 3f 01
       -1.0900715e-34 -7.295401e-39 -4.562925e-38 3.5148624e-38
000130 b8 df 2a 00 86 7e be 00 04 02 bc 81 bc c5 35 81
       3.937346e-39 1.7494132e-38 -6.9063185e-38 -3.3386317e-38
000140 f8 5a df 01 e2 72 47 01 51 09 a0 02 0c 43 4c 81
       8.2047796e-38 3.6632952e-38 2.3515234e-37 -3.7516986e-38
000150 fb 17 77 04 22 a3 b4 01 54 7c fc 00 98 97 52 81
       2.9045722e-36 6.635564e-38 2.3187146e-38 -3.8679672e-38
000160 3b ad 8f 01 4c 4b e9 80 e8 3e ce 00 d6 12 60 81
       5.277848e-38 -2.1424682e-38 1.8940679e-38 -4.1155816e-38
000170 22 75 85 80 04 67 52 01 77 64 f9 82 3c c3 cc 80
       -1.225614e-38 3.8644818e-38 -3.6644926e-37 -1.8804478e-38
000180 f6 d5 16 83 b0 94 ab 01 fa cc cc 81 9b 1d 19 04
       -4.4326653e-37 6.3028835e-38 -7.523189e-38 1.7998658e-36
000190 ef bb 2a 83 d4 21 54 01 98 88 26 81 0c 07 45 83
       -5.0174247e-37 3.896252e-38 -3.0587386e-38 -5.7901186e-37
0001a0 78 6e 6e 00 bd d8 56 80 23 07 8c 01 f7 d0 8e 01
       1.0141533e-38 -7.975604e-39 5.143812e-38 5.246241e-38
0001b0 a7 46 8e 01 e0 1c 81 80 24 23 8a 02 88 ad 72 85
       5.2263943e-38 -1.1857137e-38 2.0297447e-37 -1.1410658e-35
0001c0 34 e3 a4 84 96 1b a7 81 c0 09 99 81 8f 27 1d 00
       -3.8764868e-36 -6.1385695e-38 -5.6217314e-38 2.67742e-39
0001d0 48 2b 1a 86 a9 20 a2 02 02 dd 9c 81 33 60 a9 81
       -2.899598e-35 2.3822507e-37 -5.762248e-38 -6.2218835e-38
0001e0 b1 f3 f2 83 98 ac 28 01 d6 88 11 81 d6 c7 ca 84
       -1.427943e-36 3.0980557e-38 -2.673047e-38 -4.7673492e-36
0001f0 90 00 ef 80 6a 35 1c 86 f8 66 a1 00 98 5e 06 01
       -2.1948885e-38 -2.9379581e-35 1.4822453e-38 2.467978e-38
000200 16 9c 0d 01 12 6d 4d 81 4e 3c da 01 72 60 63 82
       2.6009596e-38 -3.7730808e-38 8.0167086e-38 -1.6705005e-37
000210 40 04 a3 00 aa 4c 49 81 f8 50 5f 03 18 52 8b 80
       1.497071e-38 -3.6972873e-38 6.5626758e-37 -1.2794584e-38
000220 38 ef e7 01 4a a4 b3 04 96 61 20 83 66 1a 72 83
       8.519926e-38 4.2233573e-36 -4.7131797e-37 -7.114771e-37
000230 13 10 32 02 96 d4 51 06 60 24 0a 07 23 d7 2d 03
       1.3081988e-37 3.9464715e-35 1.0392656e-34 5.1087096e-37
000240 72 f5 f5 83 dc 64 59 01 32 82 e7 81 4d 0e 6d 03
       -1.4456157e-36 3.9928968e-38 -8.504282e-38 6.9664457e-37
000250 52 71 88 81 bc a1 d6 80 57 a5 63 02 92 ae 39 82
       -5.0121117e-38 -1.9710816e-38 1.6724776e-37 -1.3641753e-37
000260 f3 fc 04 07 68 f8 12 00 91 ee fa 02 51 49 31 82
       1.0004911e-34 1.74215e-39 3.6871129e-37 -1.3024947e-37
000270 5f b1 84 02 8a 50 fe 03 18 42 6f 80 9b 96 4f 81
       1.9497463e-37 1.4947269e-36 -1.021745e-38 -3.812795e-38
000280 9c e2 8b 00 d9 9f 93 81 e4 2e 3c 81 54 24 ad 83
       1.2846426e-38 -5.422864e-38 -3.456379e-38 -1.0176367e-36
000290 fc 5d 6a 00 53 cd 43 85 ca d8 3f 01 09 05 25 01
       9.768278e-39 -9.206568e-36 3.5236698e-38 3.0309326e-38
0002a0 7b 94 6a 82 c0 21 86 81 30 22 2c 03 3c 13 4b 01
       -1.7234217e-37 -4.9272255e-38 5.0585502e-37 3.7299011e-38
0002b0 fc e6 1c 02 48 03 4a 01 6f a9 12 03 c8 b0 6f 01
       1.1527359e-37 3.7103895e-38 4.3100044e-37 4.4024201e-38
0002c0 30 59 6e 01 ce 5f 26 00 b5 da 97 81 20 16 4e 82
       4.3777685e-38 3.524117e-39 -5.578247e-38 -1.5140839e-37
0002d0 d8 24 af 03 b5 e7 50 00 90 62 28 81 30 65 13 81
       1.02940345e-36 7.42996e-39 -3.0927442e-38 -2.7072234e-38
0002e0 84 b7 75 80 3d 4e 12 81 1b be d6 80 1e 8a af 02
       -1.0810586e-38 -2.6872098e-38 -1.9720993e-38 2.5793214e-37
0002f0 d2 bf f0 05 d1 34 de 80 d7 d7 b8 81 df bb 07 87
       2.2639955e-35 -2.0406427e-38 -6.790064e-38 -1.0211482e-34
000300 7e 75 99 82 20 f3 d7 04 39 07 0b 81 d0 87 89 01
       -2.2548767e-37 5.0769532e-36 -2.553545e-38 5.0520733e-38
000310 5c 06 09 81 66 c2 7b 81 60 7e 9a 00 e0 df df 02
       -2.5167489e-38 -4.6240893e-38 1.4188001e-38 3.2895403e-37
000320 9e 6c fe 00 49 31 0e 01 56 f2 ef 00 4e 4f 56 83
       2.336518e-38 2.611664e-38 2.2035617e-38 -6.2979985e-37
000330 08 ee f6 80 e8 51 06 80 ae d5 ae 01 74 06 1e 00
       -2.2676922e-38 -5.80395e-40 6.422412e-38 2.75738e-39
000340 69 63 d0 81 a4 7c 1a 81 cc 25 69 85 06 67 c4 82
       -7.654978e-38 -2.8374758e-38 -1.09625495e-35 -2.8858744e-37
000350 35 8b 09 01 2c 28 e2 00 d0 29 bb 81 00 ba d8 80
       2.5262802e-38 2.0769233e-38 -6.875295e-38 -1.9903191e-38
000360 27 ff a0 03 4d 32 74 03 d0 41 a6 80 e0 2d 6d 80
       9.462535e-37 7.17629e-37 -1.5268301e-38 -1.0026526e-38
000370 09 1d 9d 02 41 fc f7 03 64 ac 28 81 d3 17 55 07
       2.3085742e-37 1.457527e-36 -3.098041e-38 1.603134e-34
000380 2b 87 da 86 b2 c2 55 81 0e eb 0e 03 9d 89 96 04
       -8.22011e-35 -3.9261608e-38 4.199988e-37 3.539121e-36
000390 ac 07 65 00 79 a3 86 82 da 85 19 81 6f 91 96 81
       9.278137e-39 -1.978336e-37 -2.8197696e-38 -5.5309985e-38
0003a0 bf 2b b0 84 d2 41 1f 85 e0 c1 bc 85 90 fb 39 82
       -4.1417576e-36 -7.488233e-36 -1.7750653e-35 -1.3663848e-37
0003b0 6c 9d 43 01 28 73 51 81 97 e1 6e 81 71 1e 95 86
       3.5928788e-38 -3.8469858e-38 -4.387555e-38 -5.60923e-35
0003c0 8f a9 1c 83 9c 4d 25 02 f8 62 26 80 40 54 df 80
       -4.6038923e-37 1.2144558e-37 -3.525252e-39 -2.0509539e-38
0003d0 65 06 0c 07 9e f4 bb 81 9e bb df 80 1e 81 26 81
       1.0534309e-34 -6.904396e-38 -2.054662e-38 -3.0582022e-38
0003e0 a8 4a 27 80 0f 79 1c 81 08 53 c2 81 59 88 af 81
       -3.608366e-39 -2.873953e-38 -7.138349e-38 -6.4480497e-38
0003f0 79 1b 90 81 6f 84 3c 82 78 3c 2e 02 e8 ce 62 01
       -5.2936667e-38 -1.3850065e-37 1.2800855e-37 4.1658092e-38

lstm.bias_ih_l0_reverse f4 [320]
000000 9e 38 f6 bc b4 e2 8b 3e 20 65 97 3e b4 c3 41 3e
       -0.030056294 0.27321398 0.2956934 0.18922311
000010 cb 74 d9 3e 06 24 c0 3e 2c d0 b6 3d 09 3c fb 3e
       0.42471918 0.37527484 0.089264244 0.4906924
000020 9d 97 86 3e 0a ed 9a 3e d9 42 20 3e e5 de be 3e
       0.26287547 0.3025897 0.156505 0.3727943
000030 91 2f 10 3e 2e 2d 06 3f 40 06 70 3e ef b8 6f 3e
       0.14080645 0.5241269 0.23439884 0.2341039
000040 ca cf b1 3e 97 e0 8b 3e d4 89 df 3e b9 74 6d 3e
       0.34728843 0.27319786 0.43659842 0.23189057
000050 36 d0 9f 3e d6 25 6d 3e cc 5a de 3d bd 36 5c 3e
       0.3121354 0.23158965 0.10857162 0.21505256
000060 77 2b 98 3e 55 0c 8e 3e 5b 50 75 3e 34 93 71 3e
       0.2972066 0.27743784 0.23956434 0.2359131
000070 32 7c 90 3e a4 21 53 3e 34 38 85 3e c9 e3 92 3e
       0.28219754 0.20618302 0.26019442 0.2868941
000080 ad ff a1 3e ab c3 c2 3e ed 99 af 3e fa 83 be 3e
       0.31640378 0.38039908 0.34297124 0.37210065
000090 76 0b 18 3e 3a 86 9a 3e 49 18 9a 3e 68 a5 a7 3d
       0.14848122 0.30180532 0.30096653 0.081858456
0000a0 75 c4 5c 3e 3c ff 5c 3e 8b 99 4e 3e ed 51 e1 3d
       0.21559317 0.21581739 0.2017576 0.11001954
0000b0 74 8f 28 3e 66 a5 db 3e 33 02 23 3e 8b a0 4f 3e
       0.16460973 0.42899626 0.15918808 0.20276086
0000c0 53 78 d0 3e 5d 0c b9 3e cb 1c de 3d 7c ba a0 3e
       0.407168 0.36142245 0.108453356 0.31392276
0000d0 ea 8d 84 3e 16 bf 83 3e 2c 97 68 3e cb 04 a6 3e
       0.25889522 0.25731725 0.22713917 0.32425532
0000e0 18 60 a8 3e 38 d2 3c 3e b3 29 56 3e 10 e9 26 3e
       0.32885814 0.18439567 0.20914344 0.16299844
0000f0 65 6e ca 3e d4 33 28 3d dc 8b 74 3e 27 96 be 3e
       0.3953735 0.041065052 0.23881477 0.37223932
000100 3b d1 37 3e fc ad a7 3e 18 eb 70 3e b4 4b bd 3d
       0.17950909 0.32749927 0.23527181 0.09242955
000110 1b 9b 91 3e 78 fd 29 3c f6 e1 d2 3e 68 b6 96 3e
       0.2843865 0.010375373 0.4118802 0.2943604
000120 9b f4 f9 3d 84 36 8e 3d af c6 55 3e 7e 79 c2 bd
       0.12204858 0.06943992 0.20876573 -0.09495829
000130 f9 a7 85 3e ee 1f 8c 3d a1 16 93 3e ad 7d 9f 3e
       0.26104715 0.068420276 0.28728202 0.3115057
000140 98 74 5a 01 c5 89 89 01 58 eb 65 03 3c 31 69 80
       4.0123928e-38 5.052354e-38 6.7567213e-37 -9.660389e-39
000150 15 e8 f9 06 b5 8b d8 81 6c f7 92 80 6c 04 6c 81
       9.4004404e-35 -7.954634e-38 -1.349674e-38 -4.3349527e-38
000160 0b 1d b3 81 f5 74 3e 84 56 8e 86 80 04 61 46 81
       -6.579589e-38 -2.2388097e-36 -1.2357017e-38 -3.6436462e-38
000170 1c 1e b8 81 dd 45 c4 82 54 db 14 06 e2 5f 8c 81
       -6.763413e-38 -2.8839711e-37 2.7996843e-35 -5.1565463e-38
000180 e2 ff 72 01 4d 7b 85 01 9c 07 28 01 a0 83 a9 01
       4.4631967e-38 4.903341e-38 3.0862186e-38 6.226967e-38
000190 a3 cd 1e 03 11 3c 14 81 cd ca 43 80 b8 76 99 01
       4.6668086e-37 -2.7226402e-38 -6.22573e-39 5.6373677e-38
0001a0 13 71 04 81 30 70 63 81 25 cd 3c 84 5c d1 b3 81
       -2.4325698e-38 -4.1773806e-38 -2.2193492e-36 -6.605463e-38
0001b0 96 da 25 01 07 83 e7 02 8c 83 b7 02 a8 cf db 86
       3.0462541e-38 3.4017605e-37 2.6964937e-37 -8.268377e-35
0001c0 c7 32 b9 02 ce 03 97 85 fc 8d 84 00 b0 ff 79 80
       2.7212452e-37 -1.420137e-35 1.217322e-38 -1.1203818e-38
0001d0 3e 83 21 83 1c b1 46 81 d0 88 c3 00 b7 a1 69 05
       -4.7464306e-37 -3.6493926e-38 1.7957001e-38 1.098531e-35
0001e0 1a c0 b5 04 da a4 b0 01 50 83 5e 81 30 c6 ee 80
       4.2729313e-36 6.488874e-38 -4.0869172e-38 -2.1927944e-38
0001f0 2e c6 61 00 ec 5f 5c 80 e9 82 a4 83 b4 f2 ad 81
       8.979137e-39 -8.483276e-39 -9.669109e-37 -6.3898425e-38
000200 43 a6 ad 81 13 81 83 02 27 14 5e 01 11 c6 39 02
       -6.378874e-38 1.9322805e-37 4.078942e-38 1.3648496e-37
000210 ed 7d 15 81 86 f8 8f 81 f7 a5 23 81 80 d4 4e 02
       -2.7457325e-38 -5.288652e-38 -3.0057446e-38 1.5195474e-37
000220 a8 3f c1 80 b1 d0 39 01 ad e2 a1 01 7c 86 42 81
       -1.7747086e-38 3.4128862e-38 5.9467323e-38 -3.572866e-38
000230 10 57 c6 00 c8 b9 7d 00 b8 90 cf 00 a4 c0 56 00
       1.821466e-38 1.1546083e-38 1.9061863e-38 7.966959e-39
000240 e4 60 0a 02 88 d4 04 81 03 0e f2 83 ba 4e 81 01
       1.0166445e-37 -2.4397055e-38 -1.4226699e-36 4.7500083e-38
000250 9e 74 58 81 fe 34 2c 01 d6 bb 8d 80 08 07 db 80
       -3.9756603e-38 3.162943e-38 -1.3016188e-38 -2.0114496e-38
000260 32 13 19 01 34 5c c3 80 a0 79 55 02 93 37 0c 81
       2.8115434e-38 -1.7940998e-38 1.5683673e-37 -2.5753811e-38
000270 55 44 a5 05 bb 46 a4 05 ac 29 22 81 2f 2a 1c 81
       1.5541627e-35 1.5448468e-35 -2.97846e-38 -2.868294e-38
000280 34 5f a4 3d 0d 7b 11 bd 31 1e aa bc f9 c9 9c 3d
       0.08025971 -0.03551774 -0.02076635 0.07655711
000290 e5 11 5c 3e c9 73 16 be d2 10 97 bb 5a 50 17 be
       0.21491201 -0.14692606 -0.0046101594 -0.14776745
0002a0 9d 35 f5 bd bb 03 2f bc f5 ef 65 3d 0a 3e e1 bc
       -0.119731165 -0.010682042 0.056137044 -0.027495403
0002b0 f1 7b 00 be d6 5b d8 bd 04 92 71 bd 1a 87 8d 3d
       -0.1254728 -0.10564391 -0.058977142 0.06910534
0002c0 5a e0 58 3e f9 67 bf bd ea cb 70 be b2 fe 49 be
       0.21179333 -0.09346003 -0.23515287 -0.19726065
0002d0 2c be 43 3b d9 25 55 3e d5 4b b6 bc 25 3f 3a 3e
       0.002986799 0.20815219 -0.022252956 0.1818815
0002e0 a1 20 13 3d b7 57 71 be 62 ed bb 3b 72 62 db bd
       0.03591979 -0.23568617 0.0057350853 -0.10712136
0002f0 27 2d 77 3b d0 22 0f be dd 92 2a be 01 57 c7 bd
       0.0037716122 -0.13978124 -0.16657586 -0.097333916
000300 c2 17 2b be d9 00 5a 3e 11 6a 41 3e 76 00 8d bd
       -0.16708282 0.21289386 0.18888117 -0.068848535
000310 60 7a 09 3c 6e 96 fd 3d ec 00 1b be 36 f6 03 bc
       0.008390993 0.12382208 -0.1513707 -0.008054307
000320 4f c1 79 bd 82 a6 54 3d ea 04 c3 bd 38 9e 7c bd
       -0.06097537 0.051916607 -0.09522422 -0.061674327
000330 c0 72 f0 3d 3a 31 c1 3d 75 0c a6 3d 1c da 8e 3c
       0.11740637 0.09433217 0.08107845 0.017437987
000340 2c c2 3a 3e 1d 02 71 be fe 0c ae 3c b8 be 2c 3e
       0.18238133 -0.23535962 0.02124643 0.16869628
000350 0c 9b fe 3d a2 d2 97 be 62 35 29 3b 15 6e 2d 3e
       0.124319166 -0.29652888 0.0025819172 0.16936524
000360 85 34 8c bc 35 9b 91 bd 95 dd f9 3d 2d 1c 6d 3d
       -0.017114887 -0.071096815 0.122004665 0.0578882
000370 79 ba 5e be 3e 88 f9 bc 9e 56 89 3c e2 c1 da 3c
       -0.21750821 -0.030460473 0.016764935 0.026703779
000380 62 48 01 bd 75 1c d9 3d 79 09 29 3c f0 8b 51 3d
       -0.03156317 0.10601131 0.0103172 0.051158845
000390 ca 36 17 3e 06 95 b6 bc a1 79 8e 3e b3 f0 33 3e
       0.14766994 -0.022287857 0.2782717 0.17572288
0003a0 2a db 3e 3e 38 51 7c bd 95 60 aa bd 16 90 7d 3d
       0.18638292 -0.061600894 -0.08319203 0.06190499
0003b0 09 2f d7 bd 5a 23 13 be 93 e7 1c be 79 10 00 bd
       -0.10507018 -0.14368954 -0.15322714 -0.03126571
0003c0 65 0b b1 bc 82 43 5f 3e 12 c7 e4 3e 31 1e a1 3e
       -0.021611879 0.21803096 0.4468313 0.31468347
0003d0 5e 37 e5 3e 7f 82 d4 3e ed 7a 97 3d 28 cb 11 3f
       0.44768804 0.4150581 0.07396493 0.56950617
0003e0 f2 66 21 3e 55 33 92 3e 35 77 fa 3d c1 46 b5 3e
       0.15761927 0.28554788 0.12229768 0.35405543
0003f0 09 7c 27 3e 56 e1 b0 3e dd 7f 75 3e d4 0c a5 3e
       0.1635591 0.34546918 0.23974557 0.3223635
